tetris_dqn_model3.pth (torch, 297644 bytes, 6 tensors)

fc1.weight f4 [256, 24]
00000000: f94f bdb9 66e6 943c 9dc6 3fbc e7be d3bd
00000010: a62b 21be 71b6 44be d783 d63d 257b f8bd
00000020: 7b58 943c 0d21 433e d6c0 35be 458f adbd
00000030: 9ea2 bdbd 5614 a03d 5476 9fbd 6771 24be
00000040: 2460 893b f8fe d0bd f6cd 443e 3390 253e
00000050: ecfd 2abe 459d e2bd 2a56 0a3d 43e4 0bbe
00000060: 9295 22be bedc 823d 5c31 32bd fa9a cfbd
00000070: 86ac 14be 4f09 2b3e c52b 18bd 45ef c5bd
00000080: 5fad 273c 90e8 923d 5b43 013d 56da 7f3c
00000090: 9cb3 ac3d d6ed 44be 438b 20be 8984 81bd
000000a0: 4dba f6bd 6844 a53b f0c3 35bd 094f 043c
000000b0: b750 1f3e 4b21 d4bd 5d00 e2bd bd7a 21bd
000000c0: fddd e33d fe1b f1bd 8186 d73d 890f 03be
000000d0: f8b3 4f3d 0af2 1cbe 84c0 2abe 9a06 1dbe
000000e0: 1a14 383d dc4f 3fbe e7e9 b63d 653c f2bd
000000f0: 2538 c53d 8bc1 82bd b58f 953d ac0b 453d
00000100: bceb 0ebe 24c8 4f3e eafd 2abd 7bec 4abe
00000110: 34b4 853d 770e 1abe 78f7 4bbd e58b 04be
00000120: a713 4cbd ccee 8f3e 6ad2 6cbe 9bd7 bc3e
00000130: 6f3f a43f 6611 7c3f 646b 9a3f 79bf ec3e
00000140: 96ec be3e 1ff7 c9be 175b c43e 8b16 abbe
00000150: fb38 463f 28f8 b43f 5a30 3fbd 3a8a 993e
00000160: 6b02 333d 3134 5b3e 5c05 3b3e 9ede 1c3d
00000170: 5afa 073e df8b 813e a1f8 5b3e 790d 8e3e
00000180: f967 543e 8b6c 053e a2a2 4b3f ee39 0b3f
00000190: 3eab 00be 206a 23be bd2b 90be c1e3 dc3d
000001a0: 8ca9 b23e 676e 543f 7ff1 bb3f 856e 2a3f
000001b0: d7b9 ad3e 1ff8 c03d e494 98bd 550d 9dbc
000001c0: 461d 843d d3d9 7ebe 0d3a 57be 4de9 693d
000001d0: ecc3 49bd 6259 813a 3749 843d a98f 95bd
000001e0: b740 993e 9786 b6bd 1575 8d3e e1bd db3e
000001f0: b930 6f3e 0e5e 563d bf4f 64bc 9c1e 1ebe
00000200: 94bc 02be b215 193e 5442 a73f 8160 883f
00000210: d60d 3e3d 8f37 503d a6c8 3fbe 5c78 ba3d
00000220: 0615 be3d 6758 28bd 08a1 d1bd 8fa5 5e3d
00000230: 336e 52be acf2 21bd 683c 3cbe 7fb5 31bc
00000240: 353a 9c3e c7ed 43bd df80 283e 1afb 353e
00000250: 9a28 853d 23bc 4d3e 7dba 193e c6fb 653e
00000260: b68b a43e 5dff 47be e5f5 bb3f 393a 9e3f
00000270: c6bd 783d 8f53 1c3e 7175 3dbe 7ad5 a6bb
00000280: 147a e4bd 4d50 153e 736d 3bbe 8518 06bd
00000290: b746 b3bc 6fcb d0bd 6fd7 12be 2f96 303d
000002a0: 11c4 2a3d b14b 34bb b64d 8a3c e1d3 52bd
000002b0: 01f6 5e3e 7128 353e 612a a63e 9bcf 2bbd
000002c0: 788f 78bd ae08 e8bd 66f1 ba3f c3cc 8f3f
000002d0: 00d3 593e 01fa b33e f43b c23d 9aa3 363e
000002e0: 1dce 5dbd 5d70 f43d 0643 14be 662a c9bd
000002f0: 7988 07be c1af 8f3d 0645 0dbe 4464 d63d
00000300: 8feb 8b3e 0471 43be a9b3 2bbe 6cd3 723e
00000310: b7fe 7a3e b8bc 623e ac6f 5d3d bf76 b2bd
00000320: dec0 163e 45a8 033e 4ce3 bc3f 1446 863f
00000330: b32b 833e 3676 aa3d 507a 1e3d 88b4 a9bc
00000340: cbe5 033e 03b3 103e 3db8 5abc 2d81 40be
00000350: 36f3 76bd c4e5 cebd 66af 74bd 6e2b 89bd
00000360: 94fe 62bd 1cca 65bd 3ec8 4d3d 2edb 863e
00000370: 4b73 c83e b8bc e23e a0a1 833d 2b89 f6bd
00000380: 1954 883b 9e5c d3be cdd0 d33f 3c33 0b40
00000390: 087a c13e a278 fe3d 085b 40be a5b0 0fbe
000003a0: 2500 973d 6a27 963d 03bc babd d35c 0b3d
000003b0: 936c cf3c 8325 bf3d 8dd7 0cbe 32e9 173e
000003c0: 8696 d2be f6b0 06be 8f2a 02be f012 353e
000003d0: 2714 943e 9856 cb3e bfa0 ad3e a6ff fe3d
000003e0: 3f92 4c3d d682 a3be 8664 da3f a7e1 0140
000003f0: 344f 913e eae7 c73d 43e2 163d 8ac2 f33d
-0.00036108473 0.018176269 -0.011705068 -0.10339146 -0.15739307 -0.19210221 0.10474365 -0.12132863
0.018108597 0.19055577 -0.17749342 -0.08474592 -0.092595324 0.07816379 -0.07786241 -0.16058885
0.004192369 -0.102048814 0.19219193 0.16168289 -0.16698426 -0.11065153 0.03377358 -0.13661294
-0.15877369 0.063897595 -0.043504104 -0.10136981 -0.14518937 0.1670277 -0.037151117 -0.09664778
0.010234206 0.07173264 0.031558376 0.01561602 0.08432695 -0.19231352 -0.15678124 -0.06324107
-0.12047253 0.005043555 -0.044376314 0.008075484 0.15558134 -0.10357913 -0.110352255 -0.039423693
0.11126325 -0.11772917 0.105237015 -0.12798895 0.05070874 -0.15326706 -0.16675001 -0.1533455
0.044941045 -0.18682808 0.08931332 -0.118279256 0.09629849 -0.06384572 0.073028006 0.048106834
-0.13957113 0.20291191 -0.041746058 -0.19816773 0.06528512 -0.1504458 -0.04979655 -0.1294399
-0.04982343 0.28111875 -0.23127142 0.36883244 1.2831858 0.9846405 1.2064023 0.46239832
0.37289876 -0.3944635 0.38350746 -0.33415636 0.77430695 1.4138231 -0.04667697 0.2998827
0.043703478 0.21406628 0.18263763 0.03829824 0.13279095 0.25302026 0.21481563 0.27744654
0.20742787 0.13029687 0.7954503 0.5438527 -0.12565324 -0.15958452 -0.2815837 0.10785628
0.3489498 0.8298096 1.4683074 0.6657489 0.33930847 0.09422325 -0.07450274 -0.019171396
0.06450896 -0.24887781 -0.21018238 0.05710726 -0.04925911 0.0009868557 0.06459277 -0.073027916
0.29932186 -0.0891239 0.2762839 0.42918304 0.2335843 0.05233579 -0.013935029 -0.15441364
-0.1276725 0.14949682 1.3067117 1.0654451 0.046399914 0.050834235 -0.18728885 0.09104988
0.09281354 -0.041099932 -0.102357924 0.054357108 -0.2054985 -0.03953807 -0.18382418 -0.010846495
0.30513158 -0.047834184 0.1645541 0.17771569 0.06501885 0.200913 0.15012546 0.22459325
0.3213784 -0.19531007 1.4684416 1.2361518 0.060727857 0.1526625 -0.18501832 -0.0050913664
-0.11156097 0.14581414 -0.1830347 -0.032738227 -0.021884305 -0.10195052 -0.14339994 0.043111976
0.04169089 -0.0027510936 0.016882759 -0.051471595 0.2177353 0.17691208 0.32454208 -0.041946035
-0.060683697 -0.113297805 1.4604919 1.1234363 0.21271896 0.35151675 0.094840914 0.17835847
-0.054151643 0.11935494 -0.14478692 -0.0982254 -0.13235654 0.07015944 -0.13795862 0.10468343
0.27328154 -0.19086081 -0.16767754 0.23713464 0.24511229 0.22142303 0.054061577 -0.08714055
0.1472201 0.12857158 1.4756866 1.0490136 0.25619277 0.08323328 0.038690865 -0.020715967
0.12880628 0.14130788 -0.01334959 -0.18799277 -0.060290538 -0.10102418 -0.059737585 -0.06697737
-0.055418566 -0.05610095 0.050239794 0.26339096 0.39150462 0.44284606 0.06427312 -0.120378815
0.004160416 -0.412816 1.6548096 2.175002 0.37788415 0.12425353 -0.18784726 -0.14032228
0.073730744 0.073317364 -0.09117892 0.03402407 0.025320327 0.09333327 -0.13754101 0.1483505
-0.41130465 -0.13153443 -0.12711547 0.17683005 0.28921625 0.39714503 0.33911702 0.12451105
0.04994416 -0.31935757 1.7061927 2.0293977 0.2838074 0.09761031 0.036836874 0.1190234

fc1.bias f4 [256]
00000000: 373a 71bd d2fc 40be 6446 153c 55ec e63d
00000010: 4dcb 2fbe 4336 c73c 25ea bfbc aeda 4ebd
00000020: fbd2 6d3d 30c8 fb3d 3101 3a3e c369 1fbe
00000030: f825 d63d 027c 3cbe f110 043f f61b fa3d
00000040: 06a3 14bd 15fd 343e 6cb0 a43e df8d fb3d
00000050: 2e6f ad3e cb23 dabc 8f98 9c3d b060 193d
00000060: 841b 0c3d f4b4 f8bc 40b5 0abe 3f01 e6bb
00000070: 356f 08be 446d 23be 8bbf 5a3e 730a c7bd
00000080: 2cd4 a33e 8772 68bd ba54 65bd a64f 903e
00000090: bb52 f63d 3b65 553e f52d 27be f245 2d3e
000000a0: fb16 b7bd b325 40be c7ad bc3d f2f8 233d
000000b0: 067f cd3d 0d30 0abe 16ff 09be 236c b6bd
000000c0: bc6a 0dbe 930d 30be b2e9 e73d e8bd 01bb
000000d0: 15ba f8bc ab08 1e3e eec9 e8bd 4919 e23d
000000e0: 078a f73d 713b f2bd 1174 e03d 3b9f 84bd
000000f0: 4d7a 54bd 4ebf ba3d 1ea5 0fbe f2eb 0cbd
00000100: 8bf2 0b3e a8d9 483d b106 263e b521 91bd
00000110: 1815 89bd 6bd6 e4bd 87c7 41bd 5b90 413e
00000120: 1f6f ab3d cf4d 2bbe e339 133f 6834 b23f
00000130: cca7 a63e 9c80 7bbd 1618 3fbe 5c70 3f3e
00000140: 2862 20be 06ef 22be 08cd 0fbe 9de3 2bbd
00000150: 714d e8bd f573 893d c02a bcbd 808e 303d
00000160: 27aa 1cbe 93b9 a23d 1791 5cbe 3c6c b23c
00000170: b839 d7bd 265f acbd 6808 7e3d 15e6 0fbc
00000180: cb8b ba3d 3eff 8d3e 2119 543e b666 323e
00000190: dba7 b03d ad5b 12bd 0900 053d 945e 43be
000001a0: 485a 0b3e 298b f73c 3059 a03c eeed 2d3e
000001b0: 6b7e 9abd 09cd 843d 8e12 31be 17e9 06be
000001c0: 445c 6e3e b487 083f 9179 efbc c203 0a3f
000001d0: 0993 32be fdaa 6ebd 2132 9f3e 98c8 7c3e
000001e0: 2f04 673e 4096 553d 6bb3 413b 8b32 d1bd
000001f0: e0b4 d43c 62fd 18be e006 d2bd 1d5e 2bbe
00000200: 99a6 253d 12c4 4cbe f0d0 1cbe 039f 5f3e
00000210: a644 c8bd 4188 88bd d702 07bd d482 983d
00000220: c2ce 973d 91c0 3fbe 4c01 373d df73 5f3e
00000230: ad4c 793e f87b cbbb 2793 70bd 5325 18be
00000240: 6939 06be e343 28be 23e9 d1bd 2d05 db3d
00000250: 0662 ccbd c381 e73d 1104 123e a828 993e
00000260: b24d 6cbd 06dd b4bd 9e8a 8bbc fc16 01be
00000270: 533b e43c e1c7 20bd abba d83d 99d0 21be
00000280: 43dd 943e bc18 9a3d d13c bf3d 460a ccbd
00000290: 0b55 30be b1c5 253e 053f c1bd dcba 45be
000002a0: eb0e 8dbd 01da 78bd d56e 1dbe 2aa2 c53d
000002b0: 6238 593e 85d4 7dbc 05be db3e 6c88 ac3d
000002c0: ee53 ba3e d2ba b23e 7de6 343e 3b00 363e
000002d0: 0d40 3abd 6e55 51bd 0b6e 3bb9 dc96 bfbd
000002e0: 03da e93d a8e0 b43d 59a7 bd3d 1e76 813c
000002f0: c42d 0a3d da4a 7b3d f1ec 2abe fd09 c73d
00000300: a0f7 cd3c c4ca 323d 69e0 14be 58e0 c4bc
00000310: 7d56 8d3c 0268 87bc 5572 3d3e fca8 c53d
00000320: 8831 4dbe 1fb4 d4bd aefb eabd 907e 8abd
00000330: 24c3 64bd 5def 4bbd e3a9 913d 2a53 18be
00000340: 10c5 1ebe 5dcc 3e3e a6de 503e 9dec 8d3e
00000350: 1365 5d3d d247 d13c 7f5b f83d 908d cfbd
00000360: b79b 133e 4371 1abd f0df 83bd eca7 143f
00000370: a5de a63c df5b c33d 68df 62bd 610b 9a3f
00000380: e5e6 cfbd b7ea 7abd 9b46 e33d 4bc2 19be
00000390: 11e4 eabd 4b78 88bd be0f 8abd 3a0f a83d
000003a0: 9a13 843c 1523 a03d 0b2c 833e 0cd7 f5bd
000003b0: 2030 463e 670e d7bd e91f 0d3e edba 3ebe
000003c0: fda4 fe3c 771b 133e 0b24 f13a b5d6 f8bd
000003d0: 4860 debc 0fa3 293d 9761 0b3d 3a49 0a3e
000003e0: e0cf da3d b665 903e ee3f 91bd b043 853c
000003f0: d220 2c3d 26cd d23d 2ded d63e ff2b d33c
-0.05889341 -0.18846443 0.009111021 0.112755455 -0.17167397 0.024317866 -0.023427079 -0.050501518
0.058062535 0.12294042 0.18164517 -0.15567689 0.10456461 -0.1840668 0.5158835 0.122123644
-0.036288284 0.17674668 0.3216585 0.12282919 0.33873886 -0.026628396 0.07646286 0.037445724
0.03420593 -0.030359723 -0.13545704 -0.0070191915 -0.13323672 -0.1595965 0.2136213 -0.0971879
0.31997812 -0.056749847 -0.055989005 0.28185767 0.12027498 0.20839398 -0.16326125 0.16921213
-0.0893993 -0.18764381 0.09212833 0.040032335 0.100339934 -0.13494892 -0.13476214 -0.08907344
-0.13810247 -0.17192678 0.11323871 -0.001979703 -0.030362168 0.15432994 -0.1136664 0.11039979
0.120868735 -0.11827744 0.10959638 -0.06475683 -0.051874448 0.0911852 -0.14027831 -0.034404702
0.13666742 0.0490357 0.1621349 -0.07086507 -0.066934764 -0.111737095 -0.047309425 0.18902723
0.08370804 -0.167289 0.57510203 1.3922243 0.32549894 -0.06140195 -0.18661532 0.18695205
-0.15662444 -0.15911493 -0.14043057 -0.041965116 -0.11342896 0.0671157 -0.091878414 0.04310465
-0.15299283 0.07945552 -0.21539722 0.021780126 -0.10509056 -0.084165856 0.062019736 -0.008782883
0.09108695 0.27733797 0.20712711 0.17421994 0.08625766 -0.03573196 0.032470737 -0.19079047
0.13608658 0.030217724 0.019573778 0.16985294 -0.075436436 0.0648442 -0.17292234 -0.13174854
0.23277384 0.53332067 -0.029232772 0.53911984 -0.17438902 -0.058268536 0.31092933 0.24685895
0.2256019 0.052145243 0.0029556404 -0.102147184 0.025965154 -0.14940408 -0.102552176 -0.1673512
0.040442083 -0.1999667 -0.15314078 0.21838002 -0.09778719 -0.06666613 -0.032961693 0.074468285
0.07412483 -0.18725802 0.04467897 0.21821545 0.24345656 -0.0062098466 -0.058734085 -0.14857988
-0.13107838 -0.16432147 -0.102495454 0.106943466 -0.09979634 0.11304047 0.14259364 0.2991383
-0.057691284 -0.088312194 -0.017033871 -0.12606424 0.02786032 -0.03925312 0.10582479 -0.1580223
0.2907506 0.07524249 0.09337772 -0.09962897 -0.17219941 0.16188695 -0.09435848 -0.19309562
-0.06887611 -0.06075478 -0.1537431 0.09650071 0.21212915 -0.015492563 0.4291841 0.08424458
0.36392158 0.34908158 0.1766605 0.17773525 -0.04547124 -0.051106863 -0.00017874704 -0.09354946
0.114185356 0.08831912 0.09260435 0.015803393 0.03373505 0.06135068 -0.16691948 0.09718702
0.02514249 0.043650404 -0.1453873 -0.024032757 0.017253155 -0.016529087 0.18500645 0.09651372
-0.20038426 -0.10385918 -0.11473785 -0.06762421 -0.055850163 -0.04978882 0.071124814 -0.14875475
-0.15504861 0.18632646 0.20397434 0.27719584 0.05405147 0.025546942 0.121268265 -0.10134423
0.14414869 -0.03770567 -0.06439197 0.5806873 0.020369837 0.095390074 -0.055388838 1.2034723
-0.101514615 -0.061258998 0.11097451 -0.15015523 -0.114692815 -0.06663569 -0.06741284 0.08206029
0.016122628 0.07819191 0.2561954 -0.120039076 0.19354296 -0.10500794 0.13781704 -0.18625994
0.031084532 0.14365946 0.0018397582 -0.12150327 -0.02714552 0.04141527 0.034028616 0.13504496
0.1068418 0.282026 -0.07092272 0.016267627 0.042023487 0.10293035 0.41977826 0.025777815

fc2.weight f4 [256, 256]
00000000: e415 d03c 3af9 433d 38c4 a4bc c0b3 d03a
00000010: 18b4 e13c cc95 133d 0cdc 853c 400b 053c
00000020: 4c86 403d 108f f4bc d050 7b3c f64c 40bd
00000030: 0057 0a3d 44b2 773d e04e fabb 601d 79bc
00000040: c0b7 703d e63d 09bd c01a a1ba d09f d8bb
00000050: d2b2 04bd 6aae 1fbd 04c7 803c 3498 cabc
00000060: d691 7a3d cacd 753d 0c16 3d3d e6aa 42bd
00000070: f280 6abd 48a0 963c 9878 2ebc 887b 5fbd
00000080: 08ed f43c 104c 033d c8e7 fc3c ecd6 653d
00000090: 8023 6a3b f262 6a3d a80d 463d 20b6 b1bc
000000a0: e40d c13c 62e2 40bd be14 42bd 945e 773d
000000b0: 3010 21bc a2e2 4a3d 4469 89bc 60d2 cc3b
000000c0: ec3c a63c e04e 1bbd 58e3 abbc ce7f 60bd
000000d0: 00ad 533a 3ca3 833c da2f 7cbd 9058 ba3b
000000e0: 6c01 e7bc e48b 2a3d f0ea 9abc 34ab 113d
000000f0: 74ac 11bd 580f 1fbc be2e 043d 20cf 76bd
00000100: 0045 1bbb 3027 3d3c dc93 ccbc aaa5 4d3d
00000110: b00c 473c 4aa3 7b3d 56cc 4d3d 5683 68bd
00000120: e028 20bd 7461 cc3c 787c 4dbd 24f9 e5bc
00000130: fe9e 433d d880 6a3c 2a07 0d3d c65b 62bd
00000140: 208f cebc f4cc b1bc 786a 16bd 26e5 13bd
00000150: a0c8 4a3c 227f 3ebd 08ef 4d3d 2c72 ce3c
00000160: 903a 47bc 0ecd 05bd 1c97 16bd f069 e33c
00000170: 20ba 92bb 0018 ae3a f47f 73bd 3247 5fbd
00000180: cc11 e23c b208 783d 30bd b2bc 1e1f 1e3d
00000190: 9492 b03c 3474 2dbd d0fd 9fbb 7616 03bd
000001a0: 9c8c 5f3d a2f8 5abd b4ac bfbc 1a5a 363d
000001b0: d808 46bc 06b9 2f3d 70f6 afbc c689 723d
000001c0: e83a 4cbc 9474 84bc f031 a83c b011 e93c
000001d0: 3834 7abc a0f0 153c 3063 acbc 1883 713d
000001e0: 507d 4f3c 003f debc ca41 0bbd 3cc0 efbc
000001f0: 2e12 753d eea6 583d 0c2e 483d 8054 82bb
00000200: c4c7 71bd 0e0f 693d 086c f7bc f2d0 7abd
00000210: c4e7 3e3d 28fb 4d3c ee5b 1fbd 40a7 ba3a
00000220: 80f0 653b 561e 7dbd 00a7 f03b cc5f 723d
00000230: 5480 033d e026 f6bc b478 ce3c 666a 233d
00000240: 38ae f23c fcd3 df3c 5c5b fdbc d64f 25bd
00000250: 1086 8cbc 804f 273d 6091 26bb 36ec 36bd
00000260: 8852 fd3c c0cf a3bc a854 263d 9857 9d3c
00000270: 9400 01bd b856 7d3c b40c 2dbd b847 623c
00000280: b69d 78bd 9c2e 15bd a2dc 363d 4e93 0abd
00000290: 58fb 34bd c0e8 b03c 8087 543c 80ac f73c
000002a0: 2ca2 773d 047a 583d 34e6 c53c c0a4 68bb
000002b0: 3088 82bc 0027 c5b9 f0e9 473d 002d 9a3c
000002c0: 0076 a9bb 06e2 15bd 581a 1a3d 460e 44bd
000002d0: 04cd ae3c 368c 1ebd 5834 95bc 107a 7f3d
000002e0: 282a 12bc 5c16 2e3d 2cc3 a83c 44f4 ac3c
000002f0: cceb 3dbd b863 16bd f043 ef3c d8c7 3dbd
00000300: 2e0c 013d be36 63bd 64d4 1f3d 12c9 1dbd
00000310: 0aa4 173d 0004 e53a d8e4 5dbc 6036 b73b
00000320: a045 5a3d b623 5e3d f491 30bd 746d f13c
00000330: e401 e63c 8c78 bfbc 3898 993c 88ad 7c3c
00000340: 9059 17bc 38b2 e8bc fc88 383d 2014 f93c
00000350: 28f5 3bbd f896 e73c 48f6 1bbc 2223 0f3d
00000360: 7693 493d 2072 95bc 7099 81bb 0e4c 5cbd
00000370: aece 123d 80b6 8eba 2c91 8fbc 9e42 64bd
00000380: f0a0 f63b 102a c8bb 2279 7cbd 6cd4 25bd
00000390: c0bf 4dbc 0050 b0b9 0e81 1d3d 104b 5b3d
000003a0: 2a4b 103d a0aa 253b 5029 cb3b 68a8 ba3c
000003b0: 2008 cd3c 7816 313c c6dd 37bd 9c4a f93c
000003c0: d0b0 d7bc ec40 b73c 66a8 02bd 80f0 4b3c
000003d0: 181c 0dbc 48e7 0a3c 8c35 25bd 9432 2fbd
000003e0: eea2 6e3d a06c e23b b806 203c 8480 273d
000003f0: 301a f0bb 5430 843c 7e55 71bd d019 6dbd
0.025401063 0.047845103 -0.020113096 0.001592271 0.027551696 0.03603153 0.016340278 0.008120358
0.047003075 -0.029853374 0.015339091 -0.046948396 0.033774376 0.06047274 -0.007638797 -0.015204757
0.058768988 -0.033506297 -0.0012291297 -0.006610848 -0.0323971 -0.038984694 0.015719898 -0.02473078
0.061174236 0.06001071 0.046163604 -0.047526263 -0.057251878 0.018386975 -0.010648869 -0.054561168
0.029898182 0.03205496 0.03087224 0.05611317 0.0035726726 0.057223268 0.048352867 -0.02169329
0.023566194 -0.047090895 -0.047383063 0.06039293 -0.00983052 0.04953254 -0.016773827 0.0062506646
0.020292722 -0.037917018 -0.02098243 -0.054809384 0.000807479 0.016069047 -0.061569072 0.005686827
-0.02819892 0.041637316 -0.018910855 0.035563663 -0.035564855 -0.009708248 0.03227114 -0.060256124
-0.002369225 0.011544988 -0.024972849 0.050206818 0.012149021 0.06143502 0.050243698 -0.056765877
-0.03910148 0.024948813 -0.05016753 -0.028072901 0.04775905 0.014312945 0.03443066 -0.055263303
-0.025214732 -0.021704175 -0.03672263 -0.036107205 0.012376934 -0.046507962 0.050276786 0.025200926
-0.0121599585 -0.03266626 -0.036765203 0.027760476 -0.0044777542 0.0013282299 -0.059448197 -0.054511257
0.027596377 0.060555167 -0.021818727 0.038603894 0.021554269 -0.042347148 -0.0048825517 -0.032003842
0.054577455 -0.05345977 -0.023397781 0.04451952 -0.012087069 0.04290106 -0.021479815 0.059213422
-0.012465216 -0.01616887 0.020531625 0.028450817 -0.015271239 0.009151608 -0.02104339 0.05896291
0.012664154 -0.02712965 -0.03399829 -0.02926647 0.05983179 0.05289357 0.04887204 -0.0039773583
-0.059028402 0.056899123 -0.03020288 -0.061234422 0.046607748 0.012572087 -0.03890603 0.0014240518
0.0035085976 -0.06179651 0.0073441267 0.05917339 0.032104805 -0.030047834 0.02520404 0.03989639
0.02962409 0.027322762 -0.030927353 -0.04035934 -0.01715377 0.0408473 -0.002541624 -0.044658862
0.030923143 -0.019996524 0.04060808 0.019206807 -0.031494692 0.01546257 -0.042248443 0.013811044
-0.06069728 -0.036421403 0.044644006 -0.033831887 -0.044185013 0.021595359 0.012971759 0.030233622
0.060457394 0.05285074 0.024157621 -0.003549859 -0.01593408 -0.00037603825 0.048807085 0.018820286
-0.0051715374 -0.036592506 0.03762278 -0.047865175 0.021337993 -0.038707934 -0.018213436 0.062372267
-0.008921184 0.042501792 0.020600878 0.021112569 -0.04636745 -0.036716193 0.0292072 -0.046333164
0.031505756 -0.055472128 0.03902091 -0.038521834 0.037021674 0.0017472506 -0.01354333 0.005591199
0.053289056 0.054233275 -0.04310794 0.029471137 0.028077073 -0.02337291 0.018749341 0.015422232
-0.009237662 -0.028405294 0.045052513 0.030405104 -0.045888096 0.02827023 -0.009519167 0.034945615
0.049212895 -0.018242896 -0.0039550588 -0.05378347 0.035841636 -0.001088813 -0.017525278 -0.055727594
0.0075265095 -0.00610853 -0.06163896 -0.040485784 -0.012557924 -0.0003362894 0.038453154 0.053538382
0.035227932 0.0025278702 0.006199993 0.02278538 0.025028288 0.01080858 -0.044889234 0.030431084
-0.026329428 0.022369824 -0.03189888 0.012447476 -0.008612655 0.008477993 -0.04033427 -0.042772844
0.05826085 0.0069099218 0.009767227 0.040894046 -0.0073273405 0.016136326 -0.058919422 -0.057885945

fc2.bias f4 [256]
00000000: d2e3 3bbd 58b7 3a3d 1665 1abd e43d 0fbe
00000010: 46e6 353e ab07 253e c842 113e 63f4 7f3e
00000020: a6d9 743d c1bd 243c 1a6c c2bc 70cb 1e3c
00000030: fa60 db3c e2a1 0bbd 2cbb 5f3e 8141 56bd
00000040: ac9a 00ba c698 da3c 5475 07be dc16 26b9
00000050: 2586 86bd c963 a8bc f123 833b 82ff 88bc
00000060: 7037 e53b f3ff 263e 3db3 873b 0d47 7f3e
00000070: 1ab1 8a3d abdd bebd 5bc7 573c 8833 da3b
00000080: 5720 823e 608c a7bd ee29 773e 779f 38bd
00000090: 5ae7 543d da8f 03be f593 3e3d 14f6 ee3c
000000a0: 533f a6bc 6261 3b3e f775 9b3d c9d5 32bd
000000b0: 649b dbbb 4f74 0cbe b2df 2bbc 923c c23d
000000c0: c2a3 02be e02e fc3d 9921 6f3e bcd2 473d
000000d0: 43c6 61bd 2b92 663e c854 28bd 9263 6bbd
000000e0: e7b3 9cbd f39c f2bc d88e 0e3c ae93 6d3e
000000f0: eb32 3bbd 95d7 0a3d d80d 573e deb2 0cbd
00000100: 66a7 713e 847d 83bc 4880 463e a170 923e
00000110: 7be7 853e 3619 143e 0075 36bd b54d 56bc
00000120: 7849 e7bb 93fb 703c 6071 b33c a001 153e
00000130: 85af 22bd 548a 31b9 5725 3a3e 2e3d 53bd
00000140: 08ad 5abd 8313 c2bc 5f8c 3bbd 8b6d 7e3e
00000150: 9d3f 243e 60fb 81bb 1c49 d2bc 473f 4cbd
00000160: 5dbf d03c f35e 8f3d b26b 0bbe 5517 683f
00000170: 1646 fa3c 9eac f83c c3bb 4ebd 5b4f 0e3c
00000180: c63f 03bd ba22 523d 032e 2abb 9b98 90bd
00000190: 1e96 1fbd 1d65 90bd d06e c6bb c563 2c3e
000001a0: cd61 623e 6e52 563d a1e4 803e 381d 033c
000001b0: c863 d33d 6299 91bc 70d2 873c 94de 593e
000001c0: 51a6 c9bd 8f82 66bd e08a 83bb e2cf 04bd
000001d0: 0058 3c3c 09e0 9c3c f507 133d a757 a03d
000001e0: b24e f7bc 7119 5bbd b869 743e 7cfc a8bc
000001f0: 8d35 acbc 8e5f 5a3e cd6f 61be 6f72 b63b
00000200: e88c 983a fce3 693e 1be6 d3bc 326b 353e
00000210: e3ba 5a3d 2ac4 c6bd c86b b83c ae40 2cbc
00000220: a5e7 c3bd c5aa 80bd 63e8 82bc 3625 16bd
00000230: 40a3 c7bd e46f aa3f 2935 853e dbf9 3f3d
00000240: 56f9 d2bd faf9 b43e a58d 67bd 1bd4 f6bc
00000250: c140 bf3d 2c81 5c3e 6b1c 7e3d f6df 27bd
00000260: df08 c43d 3afa 57bd ff23 4d3d 587b 92bc
00000270: 9dc1 29bd 45f7 4b3e 9548 b8bb 744f f1bd
00000280: a4f1 95bc da22 14bd 8635 8b3e 5833 363d
00000290: 3cf2 ce3d b172 e7bd cc14 213d 5cea 6ebc
000002a0: 4136 043d 323a 4e3e ec43 e2bd db61 e2bd
000002b0: e291 733e 0711 333c 0439 2b3d 0a13 a93d
000002c0: 2f91 5f3b 88a4 82bd f896 af3c 4d8b 65bc
000002d0: b590 02be acad 653e ea03 253e a549 c43d
000002e0: d0cf b83c 7e26 bbbc 23e0 7d3d 924e 7fbd
000002f0: fcd1 253e 2287 4cbd b894 2f3e 5a80 85bd
00000300: e060 15bd a423 00bd dfda 48bc a2ab 023d
00000310: a303 843e 8a9c b4bc 0e3b e0bd 1d10 cc3d
00000320: ba2e b63e 6c92 953d baf7 84bc a0d4 a3bc
00000330: d8fb 13bd 92f9 d4bd e454 ddbc 15e3 513e
00000340: 5314 0c3c f882 0c3c 5291 7c3e 4036 6d3d
00000350: 648b 56bc e679 ebbd 9c13 3fbd 0aa6 673d
00000360: 9d1a d0bc f78c 04be 2308 74bd a411 b2bd
00000370: a01f da3d 0aa4 a4bc 5c00 c8bc 24c7 85bd
00000380: fb13 0e3d c551 123e 99ef d2bc 6142 fe3b
00000390: 0a73 22bd a22b 693e 09d3 21bd 0928 963d
000003a0: be62 a23d 3e07 6f3d 14dd 6ebd 1b6a 3abb
000003b0: 1275 00bd 835e d8bc ecaf 08be 30d4 7f3e
000003c0: 9676 d4bd 7389 88bb 2a45 5fbd 4a3c 453e
000003d0: ba98 30bc 43d0 0e3e d286 2d3d 4818 5c3e
000003e0: ddbf 7fbc f074 c0bd 3cde bf3b b344 bc3d
000003f0: b69e a93c 5d18 803d 904c fcbb 2188 1abe
-0.045871563 0.045585006 -0.03769406 -0.13988453 0.17763624 0.16116206 0.14185631 0.2499557
0.05977788 0.0100550065 -0.023733187 0.009692058 0.02677964 -0.03408993 0.21848744 -0.052308563
-0.00049058604 0.026684176 -0.13228351 -0.0001583951 -0.06568555 -0.020555394 0.0040020873 -0.016723398
0.006995134 0.16308574 0.00414124 0.24929447 0.06772061 -0.093196236 0.013170089 0.006658975
0.25415298 -0.08181071 0.24137089 -0.045073953 0.051978447 -0.12847844 0.04652782 0.029170074
-0.020293867 0.18298867 0.075908594 -0.043660913 -0.0067018736 -0.13716243 -0.010490345 0.09484209
-0.12757781 0.12313628 0.2335266 0.048784956 -0.055120718 0.22516696 -0.04109648 -0.057468005
-0.07651501 -0.029615855 0.008701049 0.23200867 -0.045702856 0.033897 0.21001375 -0.03435027
0.23599014 -0.016051061 0.19384873 0.28601554 0.26153168 0.14462742 -0.044545174 -0.01308005
-0.0070583187 0.0147084175 0.021904647 0.14551401 -0.03971817 -0.00016931567 0.18178307 -0.051572017
-0.05338767 -0.023690945 -0.045788165 0.24846475 0.16039892 -0.003966734 -0.025669627 -0.049865033
0.025481874 0.07000532 -0.13615301 0.906606 0.030550998 0.030355748 -0.050472032 0.008685912
-0.03204324 0.05130265 -0.0025967367 -0.07060357 -0.038961522 -0.07050536 -0.0060556903 0.16834934
0.2210762 0.052324705 0.2517443 0.008002572 0.10321766 -0.017773334 0.016579837 0.21276313
-0.098461755 -0.056276854 -0.004014358 -0.032424815 0.01149559 0.019149797 0.03589626 0.07829218
-0.030188892 -0.05349106 0.23868454 -0.020628206 -0.021021629 0.21325514 -0.22015305 0.0055678408
0.0011638673 0.22840875 -0.025866559 0.17716673 0.053400885 -0.09705384 0.022512332 -0.010513468
-0.09565667 -0.06282572 -0.015979951 -0.03665658 -0.09747934 1.3315396 0.2601712 0.04686914
-0.10301463 0.35346967 -0.056531567 -0.030130437 0.09338523 0.2153365 0.06203882 -0.04098507
0.095720045 -0.05272887 0.050083157 -0.01788108 -0.04144441 0.19918545 -0.005623887 -0.117827326
-0.0183037 -0.03616605 0.27189273 0.04448256 0.10104796 -0.113011725 0.039326474 -0.014582243
0.032278303 0.20139387 -0.11048111 -0.11053821 0.23786119 0.010929353 0.04180242 0.082555845
0.0034113636 -0.06379038 0.021434292 -0.014010263 -0.12750514 0.22429532 0.16114774 0.09584359
0.02256003 -0.022845503 0.06198133 -0.06233079 0.16193384 -0.04993356 0.17146575 -0.06518622
-0.03646934 -0.03128399 -0.012259214 0.031901963 0.25784025 -0.0220473 -0.10948764 0.09964011
0.35582525 0.073033184 -0.016231406 -0.019998848 -0.03612885 -0.10399164 -0.027018018 0.20496781
0.008549768 0.008576147 0.2466481 0.057913065 -0.013094757 -0.1149786 -0.04664956 0.05655483
-0.025403315 -0.12944399 -0.059578072 -0.08694771 0.10650563 -0.020097751 -0.024414234 -0.06532124
0.034687024 0.14289005 -0.025749015 0.007759378 -0.03966049 0.22770551 -0.0395079 0.07331855
0.0792899 0.058356516 -0.058316305 -0.0028444591 -0.031361647 -0.026412254 -0.13348359 0.24983287
-0.10374181 -0.004166776 -0.05450932 0.1926128 -0.0107786 0.13946633 0.042364903 0.21493638
-0.015609709 -0.09397304 0.00585535 0.09192791 0.020705562 0.06254647 -0.0076995566 -0.15090992

out.weight f4 [6, 256]
00000000: deb4 073d 9ce7 dfbc ec7d 17bf cc30 28bf
00000010: f44d ac3f de91 9a3f 6b27 a23f f8e6 9a3f
00000020: 7c4c 0dbf 84b9 b9bb 5e4e 4a3d 74d1 dabe
00000030: 5acb edbe a096 0bbb bef9 983f 944d 6cbd
00000040: 7cc6 03bf 8db4 29bc 0762 34bf 11a2 fdbe
00000050: fa9c 20bf 92f3 37bd f892 0cbf 0c31 a43c
00000060: f40d 493d c92c 963f 886e efbe 4bb1 973f
00000070: 2a83 f9be ba80 25bf 1244 f4be 2e74 303d
00000080: a314 a33f b24f 22bf 584a a03f ad10 c73c
00000090: 8aa6 f4be 8bb3 14bf b3dc 07bf a0f8 3abb
000000a0: 1850 0d3d cb69 a73f bb99 dabe 4e38 6cbc
000000b0: 8c84 60bc 729b 1abf be34 21bf 561a 00bf
000000c0: 8aea 08bf a8d5 ad3f 5bfe a63f 4aef 203d
000000d0: babf 83bc 5c84 953f 44c9 42bd 3c58 703d
000000e0: 2295 2cbf 3b20 24bf bc0b efbe d49a 963f
000000f0: 0e6a 2fbf 3966 433d 2240 a03f 66ba 6e3d
00000100: 36fc 9a3f d145 28bf d3df aa3f 9f39 d13f
00000110: 0ab9 983f 185d a53f ddfd 713d 9b01 2b3d
00000120: d485 f7be 37ef 06bf 04d2 afbc 4ed2 b23f
00000130: 9298 86bd 8981 e3be d588 a43f 7ce1 453d
00000140: 7619 1ebf 4d80 383d b158 5d3d e786 ae3f
00000150: 5822 9e3f f3c6 13bd 62e5 02bb 264b 28bd
00000160: 7cc2 61bd f23d edbe 07e8 25bf 5cd1 efc0
00000170: 78a8 4d3d cd98 fbbe 44df c4bc 0dcf 02bf
00000180: 675a 02bf a97a edbe 8ece c93d 49a5 25bf
00000190: 5784 55bd 469c 27bf 0082 473b 4862 a03f
000001a0: 03db a63f 2431 edbe 5add 953f 2a79 613d
000001b0: 1e23 00bf e820 17bf 553d 3ebd e974 933f
000001c0: 13c1 2bbf c19f 753c 65bb 5cbb 4498 83bc
000001d0: b8de cabc 6807 b1bc 4d4c 08bf ec35 10bf
000001e0: 17f9 0fbf a26a 1fbf 18eb 9c3f 4237 283d
000001f0: 36e9 d13b 6859 933f ace4 27bf 201e ecbe
00000200: 433a 84bb 9bf8 9b3f f843 15bd 6ca8 9c3f
00000210: 8cf6 77bd ed98 20bf 669e 0dbf 230d 0abf
00000220: 5a03 2cbf bd26 09bf 0bb7 53bd 7550 563d
00000230: cd3f 22bf 2685 44bf 8cf4 a53f 2703 09bf
00000240: ecfc 12bf 05b8 af3f b001 f13c 0326 f03b
00000250: b916 ebbe 4c8b a43f 0c94 0abf 9cc1 4fbd
00000260: 996f 0abf 40df febb 8820 e23c 8e70 0cbf
00000270: 448c 2abf fbe4 9a3f 447d 54bc 0556 2bbf
00000280: a404 24bf 4880 0f3d 90f5 8040 acb0 e9be
00000290: 3239 07bf c886 18bf e43a 1a3d 8d75 08bf
000002a0: 042d f6be 5090 8e3f f32d 16bf 7aeb 24bf
000002b0: fc9d a53f ab72 01bd f2be 16bf 78dc 0bbf
000002c0: 027c d9be eac3 28bf 909d 433d da74 07bf
000002d0: 27a3 08bf 0ebb 9e3f f731 a13f f350 e7be
000002e0: b898 f8be 9f99 01bf f02a e5be 28a5 2abf
000002f0: ef2b a13f 5dec 04bf 4ba4 923f 6ed9 7abd
00000300: d149 2dbf 7824 cdbc 5f3f 613d e322 42bd
00000310: cc21 9d3f d621 e03b ff56 1cbf 5300 06bf
00000320: ae55 a53f 52f3 f6be 9aee 50bf f2db 793d
00000330: f4d4 18bf 7508 23bf 22dc 043f eda5 4ebd
00000340: c9f2 133d 90ae 433d 04c0 a93f 7593 08bf
00000350: 4c00 063d 088a 29bf a491 0cbf a203 edbe
00000360: 558e 29bf d7b2 1cbf e913 81bd de3b 10bf
00000370: 691c a83f 74c5 c4bc 241c f3bc 6e0b 2abf
00000380: 7fa2 febe 8158 9e3f e4c3 dc3c 3432 8bbc
00000390: 085b 5abd cd67 a53f 58e6 15bf 27dc eebe
000003a0: 24b2 e5be f427 b3bc 70b1 613c e30a fcbe
000003b0: c048 113c e8bb c23c fb71 1fbf af12 a63f
000003c0: 9e06 0abf 7331 e3bc c0b2 7c3d 5748 a33f
000003d0: 621e a13c fd28 9c3f d026 12bd 1e1f a53f
000003e0: fbed 0ebf 3cea 0fbf df88 423d 409e 02bf
000003f0: 430f 02bf a2ee 02bf d68c 41bd bb5a 2abf
0.033131473 -0.02733212 -0.59176517 -0.6569946 1.346129 1.2075765 1.266828 1.2101736
-0.5519483 -0.005667867 0.049391143 -0.42737925 -0.46444207 -0.0021299496 1.1951215 -0.05769117
-0.5147474 -0.010357988 -0.7046208 -0.4953771 -0.6273953 -0.04491002 -0.54911757 0.020042919
0.049085572 1.1732417 -0.46764016 1.185098 -0.48732883 -0.64649546 -0.47708184 0.043079548
1.2740673 -0.63402855 1.2522688 0.024299944 -0.4778331 -0.5808646 -0.53071135 -0.002852954
0.03450021 1.307916 -0.42695412 -0.014417721 -0.013703477 -0.6039344 -0.62971103 -0.50040185
-0.5348288 1.3580828 1.3046373 0.039290704 -0.016082633 1.1681018 -0.047555223 0.058677897
-0.6741506 -0.6411168 -0.4668864 1.1766 -0.685212 0.04770491 1.2519572 0.058283232
1.2108219 -0.6573153 1.3349556 1.634571 1.193147 1.2919035 0.059079994 0.041749578
-0.4834429 -0.5270876 -0.021462448 1.397043 -0.06572069 -0.44434765 1.2854258 0.04831074
-0.617576 0.045044232 0.05403966 1.3634919 1.2354231 -0.036078405 -0.0019973149 -0.041087292
-0.055117115 -0.46336323 -0.6480717 -7.4943066 0.050209492 -0.49140015 -0.024032243 -0.51097184
-0.50919193 -0.46382645 0.0985385 -0.6470533 -0.052128162 -0.6547283 0.0030442476 1.2529993
1.3035587 -0.46326554 1.1708176 0.05504719 -0.50053585 -0.59034586 -0.04644521 1.1520053
-0.6709148 0.014991702 -0.0033681032 -0.016063817 -0.024764404 -0.021609977 -0.53241426 -0.5633228
-0.56239456 -0.62272084 1.2259245 0.041068323 0.0064059747 1.151166 -0.655833 -0.46116734
-0.0040352657 1.2185243 -0.036441773 1.2238898 -0.06053786 -0.62733346 -0.5531982 -0.53926295
-0.67192614 -0.53574735 -0.051688235 0.052322824 -0.633786 -0.7676567 1.2965255 -0.53520435
-0.5741718 1.3728033 0.02941975 0.00732875 -0.45915774 1.285501 -0.5413215 -0.05072175
-0.54076535 -0.0077780783 0.027603403 -0.54859245 -0.6662028 1.2101129 -0.012969319 -0.6692813
-0.6406958 0.035034448 4.029976 -0.45642602 -0.5282165 -0.5958066 0.03765382 -0.5330437
-0.4808122 1.1137791 -0.5866386 -0.6442181 1.2938838 -0.031603497 -0.5888511 -0.54633284
-0.42477423 -0.6592394 0.047757685 -0.52912676 -0.5337395 1.2400835 1.2593373 -0.45178947
-0.48554015 -0.5062503 -0.4475932 -0.6665826 1.2591532 -0.5192316 1.1456388 -0.061242513
-0.6769076 -0.025041804 0.054992076 -0.04739655 1.2275939 0.006839971 -0.61070246 -0.52344245
1.2916772 -0.48232514 -0.8161408 0.06100077 -0.5969994 -0.6368478 0.51898396 -0.050451208
0.03612021 0.047773898 1.3261724 -0.5335 0.032715127 -0.66226244 -0.5490973 -0.46291834
-0.66232806 -0.6121039 -0.06302626 -0.5634135 1.313367 -0.024019934 -0.029676504 -0.6642369
-0.4973335 1.2370759 0.026948877 -0.016991712 -0.05330947 1.2922302 -0.585546 -0.46652338
-0.44862473 -0.021869637 0.013775215 -0.49227056 0.008867443 0.023771241 -0.62283295 1.2974452
-0.5391635 -0.02773354 0.061693907 1.2756451 0.019667808 1.2200009 -0.035681546 1.2900121
-0.5583188 -0.5621679 0.04749381 -0.5102272 -0.5080454 -0.51145375 -0.047253452 -0.66544694

out.bias f4 [6]
00000000: f33e a63e e410 a7bd f628 9bbe 82db 52bc
00000010: 6cbf 23bf aeb7 4d3e
0.324699 -0.081575185 -0.30304688 -0.012869718 -0.6396396 0.200896
